…
2023-03-13 19:28:53,878 - INFO - config=<configparser.ConfigParser object at 0x7f8c830cd430>
2023-03-13 19:29:22,105 - INFO - 
----------------------------------------------------------------------------------------
 --------------------------- START @2023-03-13 19:29:22.105512---------------------------
----------------------------------------------------------------------------------------
2023-03-13 19:29:22,105 - INFO - config=<configparser.ConfigParser object at 0x7f5ee3d43610>
2023-03-13 19:29:25,174 - INFO - model=MalConvGCT(
  (pooling): AdaptiveMaxPool1d(output_size=1)
  (cat): CatMod()
  (embd): Embedding(257, 8, padding_idx=0)
  (context_net): MalConvML(
    (pooling): AdaptiveMaxPool1d(output_size=1)
    (cat): CatMod()
    (embd): Embedding(257, 8, padding_idx=0)
    (convs): ModuleList(
      (0): Conv1d(8, 512, kernel_size=(256,), stride=(64,))
    )
    (convs_1): ModuleList(
      (0): Conv1d(256, 256, kernel_size=(1,), stride=(1,))
    )
    (fc_1): Linear(in_features=256, out_features=256, bias=True)
    (fc_2): Linear(in_features=256, out_features=256, bias=True)
  )
  (convs): ModuleList(
    (0): Conv1d(8, 512, kernel_size=(256,), stride=(64,))
  )
  (linear_atn): ModuleList(
    (0): Linear(in_features=256, out_features=256, bias=True)
  )
  (convs_share): ModuleList(
    (0): Conv1d(256, 256, kernel_size=(1,), stride=(1,))
  )
  (fc_1): Linear(in_features=256, out_features=256, bias=True)
  (fc_2): Linear(in_features=256, out_features=2, bias=True)
)
2023-03-13 19:29:33,006 - INFO - 
----------------------------------------------------------------------------------------
 --------------------------- START @2023-03-13 19:29:33.006292---------------------------
----------------------------------------------------------------------------------------
2023-03-13 19:29:33,006 - INFO - config=<configparser.ConfigParser object at 0x7fc241b6d340>
2023-03-13 19:29:35,437 - INFO - model=MalConvGCT(
  (pooling): AdaptiveMaxPool1d(output_size=1)
  (cat): CatMod()
  (embd): Embedding(257, 8, padding_idx=0)
  (context_net): MalConvML(
    (pooling): AdaptiveMaxPool1d(output_size=1)
    (cat): CatMod()
    (embd): Embedding(257, 8, padding_idx=0)
    (convs): ModuleList(
      (0): Conv1d(8, 512, kernel_size=(256,), stride=(64,))
    )
    (convs_1): ModuleList(
      (0): Conv1d(256, 256, kernel_size=(1,), stride=(1,))
    )
    (fc_1): Linear(in_features=256, out_features=256, bias=True)
    (fc_2): Linear(in_features=256, out_features=256, bias=True)
  )
  (convs): ModuleList(
    (0): Conv1d(8, 512, kernel_size=(256,), stride=(64,))
  )
  (linear_atn): ModuleList(
    (0): Linear(in_features=256, out_features=256, bias=True)
  )
  (convs_share): ModuleList(
    (0): Conv1d(256, 256, kernel_size=(1,), stride=(1,))
  )
  (fc_1): Linear(in_features=256, out_features=256, bias=True)
  (fc_2): Linear(in_features=256, out_features=2, bias=True)
)
2023-03-13 19:29:35,496 - INFO - len(ben_done)=0 -- len(ben_files)=2855 -- len(WINDOWS)=2855
len(mal_done)=2672 -- len(mal_files)=1544 -- len(SOREL)=4216
2023-03-13 19:29:53,372 - INFO - 
----------------------------------------------------------------------------------------
 --------------------------- START @2023-03-13 19:29:53.372833---------------------------
----------------------------------------------------------------------------------------
2023-03-13 19:29:53,373 - INFO - config=<configparser.ConfigParser object at 0x7f05dc8eb970>
2023-03-13 19:29:55,836 - INFO - model=MalConvGCT(
  (pooling): AdaptiveMaxPool1d(output_size=1)
  (cat): CatMod()
  (embd): Embedding(257, 8, padding_idx=0)
  (context_net): MalConvML(
    (pooling): AdaptiveMaxPool1d(output_size=1)
    (cat): CatMod()
    (embd): Embedding(257, 8, padding_idx=0)
    (convs): ModuleList(
      (0): Conv1d(8, 512, kernel_size=(256,), stride=(64,))
    )
    (convs_1): ModuleList(
      (0): Conv1d(256, 256, kernel_size=(1,), stride=(1,))
    )
    (fc_1): Linear(in_features=256, out_features=256, bias=True)
    (fc_2): Linear(in_features=256, out_features=256, bias=True)
  )
  (convs): ModuleList(
    (0): Conv1d(8, 512, kernel_size=(256,), stride=(64,))
  )
  (linear_atn): ModuleList(
    (0): Linear(in_features=256, out_features=256, bias=True)
  )
  (convs_share): ModuleList(
    (0): Conv1d(256, 256, kernel_size=(1,), stride=(1,))
  )
  (fc_1): Linear(in_features=256, out_features=256, bias=True)
  (fc_2): Linear(in_features=256, out_features=2, bias=True)
)
2023-03-13 19:29:55,872 - INFO - len(ben_done)=0 -- len(ben_files)=2855 -- len(WINDOWS)=2855
len(mal_done)=2672 -- len(mal_files)=1544 -- len(SOREL)=4216
2023-03-13 19:29:56,929 - INFO - Starting explanations: initial=0, start=None, end=None, total=179 @2023-03-13 19:29:56.929201
2023-03-13 19:29:57,427 - INFO - 0 / 179 = 0% @2023-03-13 19:29:57.427648
…
