2023-03-01 10:37:51,190 - INFO - 
----------------------------------------------------------------------------------------
 --------------------------- START @2023-03-01 10:37:51.190791---------------------------
----------------------------------------------------------------------------------------
2023-03-01 10:37:51,190 - INFO - config=<configparser.ConfigParser object at 0x7fba69586e80>
2023-03-01 10:37:55,083 - INFO - model=MalConvGCT(
  (pooling): AdaptiveMaxPool1d(output_size=1)
  (cat): CatMod()
  (embd): Embedding(257, 8, padding_idx=0)
  (context_net): MalConvML(
    (pooling): AdaptiveMaxPool1d(output_size=1)
    (cat): CatMod()
    (embd): Embedding(257, 8, padding_idx=0)
    (convs): ModuleList(
      (0): Conv1d(8, 512, kernel_size=(256,), stride=(64,))
    )
    (convs_1): ModuleList(
      (0): Conv1d(256, 256, kernel_size=(1,), stride=(1,))
    )
    (fc_1): Linear(in_features=256, out_features=256, bias=True)
    (fc_2): Linear(in_features=256, out_features=256, bias=True)
  )
  (convs): ModuleList(
    (0): Conv1d(8, 512, kernel_size=(256,), stride=(64,))
  )
  (linear_atn): ModuleList(
    (0): Linear(in_features=256, out_features=256, bias=True)
  )
  (convs_share): ModuleList(
    (0): Conv1d(256, 256, kernel_size=(1,), stride=(1,))
  )
  (fc_1): Linear(in_features=256, out_features=256, bias=True)
  (fc_2): Linear(in_features=256, out_features=2, bias=True)
)
2023-03-01 10:37:56,100 - INFO - Starting explanations: initial=0, start=None, end=None, total=182 @2023-03-01 10:37:56.100493
2023-03-01 10:37:56,244 - INFO - 0 / 182 = 0% @2023-03-01 10:37:56.244787
2023-03-01 10:37:57,560 - INFO - 1 / 182 = 0% @2023-03-01 10:37:57.560904
2023-03-01 10:37:59,384 - INFO - 2 / 182 = 1% @2023-03-01 10:37:59.383797
2023-03-01 10:38:03,001 - INFO - 3 / 182 = 1% @2023-03-01 10:38:03.001670
…
2023-03-02 10:17:28,187 - INFO - 117 / 182 = 64% @2023-03-02 10:17:28.187314
2023-03-02 11:08:37,715 - INFO - 118 / 182 = 64% @2023-03-02 11:08:37.715266
2023-03-02 12:40:11,918 - INFO - 119 / 182 = 65% @2023-03-02 12:40:11.918246
---------------------------------------------
 --------------------------- START @2023-03-02 12:36:06.652317---------------------------
----------------------------------------------------------------------------------------
2023-03-02 12:36:06,652 - INFO - config=<configparser.ConfigParser object at 0x7f3ae6fc7220>
2023-03-02 12:36:11,997 - INFO - model=MalConvGCT(
  (pooling): AdaptiveMaxPool1d(output_size=1)
  (cat): CatMod()
  (embd): Embedding(257, 8, padding_idx=0)
  (context_net): MalConvML(
    (pooling): AdaptiveMaxPool1d(output_size=1)
    (cat): CatMod()
    (embd): Embedding(257, 8, padding_idx=0)
    (convs): ModuleList(
      (0): Conv1d(8, 512, kernel_size=(256,), stride=(64,))
    )
    (convs_1): ModuleList(
      (0): Conv1d(256, 256, kernel_size=(1,), stride=(1,))
    )
    (fc_1): Linear(in_features=256, out_features=256, bias=True)
    (fc_2): Linear(in_features=256, out_features=256, bias=True)
  )
  (convs): ModuleList(
    (0): Conv1d(8, 512, kernel_size=(256,), stride=(64,))
  )
  (linear_atn): ModuleList(
    (0): Linear(in_features=256, out_features=256, bias=True)
  )
  (convs_share): ModuleList(
    (0): Conv1d(256, 256, kernel_size=(1,), stride=(1,))
  )
  (fc_1): Linear(in_features=256, out_features=256, bias=True)
  (fc_2): Linear(in_features=256, out_features=2, bias=True)
)
2023-03-02 12:36:14,718 - INFO - Starting explanations: initial=0, start=None, end=None, total=181 @2023-03-02 12:36:14.718754
2023-03-02 12:36:14,764 - INFO - 0 / 181 = 0% @2023-03-02 12:36:14.764220
2023-03-02 13:11:18,453 - INFO - 
----------------------------------------------------------------------------------------
 --------------------------- START @2023-03-02 13:11:18.453166---------------------------
----------------------------------------------------------------------------------------
2023-03-02 13:11:18,453 - INFO - config=<configparser.ConfigParser object at 0x7f4e86fb38e0>
2023-03-02 13:11:24,054 - INFO - model=MalConvGCT(
  (pooling): AdaptiveMaxPool1d(output_size=1)
  (cat): CatMod()
  (embd): Embedding(257, 8, padding_idx=0)
  (context_net): MalConvML(
    (pooling): AdaptiveMaxPool1d(output_size=1)
    (cat): CatMod()
    (embd): Embedding(257, 8, padding_idx=0)
    (convs): ModuleList(
      (0): Conv1d(8, 512, kernel_size=(256,), stride=(64,))
    )
    (convs_1): ModuleList(
      (0): Conv1d(256, 256, kernel_size=(1,), stride=(1,))
    )
    (fc_1): Linear(in_features=256, out_features=256, bias=True)
    (fc_2): Linear(in_features=256, out_features=256, bias=True)
  )
  (convs): ModuleList(
    (0): Conv1d(8, 512, kernel_size=(256,), stride=(64,))
  )
  (linear_atn): ModuleList(
    (0): Linear(in_features=256, out_features=256, bias=True)
  )
  (convs_share): ModuleList(
    (0): Conv1d(256, 256, kernel_size=(1,), stride=(1,))
  )
  (fc_1): Linear(in_features=256, out_features=256, bias=True)
  (fc_2): Linear(in_features=256, out_features=2, bias=True)
)
2023-03-02 13:12:56,063 - INFO - 
----------------------------------------------------------------------------------------
 --------------------------- START @2023-03-02 13:12:56.062948---------------------------
----------------------------------------------------------------------------------------
2023-03-02 13:12:56,063 - INFO - config=<configparser.ConfigParser object at 0x7f08473b11c0>
2023-03-02 13:13:01,308 - INFO - model=MalConvGCT(
  (pooling): AdaptiveMaxPool1d(output_size=1)
  (cat): CatMod()
  (embd): Embedding(257, 8, padding_idx=0)
  (context_net): MalConvML(
    (pooling): AdaptiveMaxPool1d(output_size=1)
    (cat): CatMod()
    (embd): Embedding(257, 8, padding_idx=0)
    (convs): ModuleList(
      (0): Conv1d(8, 512, kernel_size=(256,), stride=(64,))
    )
    (convs_1): ModuleList(
      (0): Conv1d(256, 256, kernel_size=(1,), stride=(1,))
    )
    (fc_1): Linear(in_features=256, out_features=256, bias=True)
    (fc_2): Linear(in_features=256, out_features=256, bias=True)
  )
  (convs): ModuleList(
    (0): Conv1d(8, 512, kernel_size=(256,), stride=(64,))
  )
  (linear_atn): ModuleList(
    (0): Linear(in_features=256, out_features=256, bias=True)
  )
  (convs_share): ModuleList(
    (0): Conv1d(256, 256, kernel_size=(1,), stride=(1,))
  )
  (fc_1): Linear(in_features=256, out_features=256, bias=True)
  (fc_2): Linear(in_features=256, out_features=2, bias=True)
)
2023-03-02 13:16:29,611 - INFO - 
----------------------------------------------------------------------------------------
 --------------------------- START @2023-03-02 13:16:29.611803---------------------------
----------------------------------------------------------------------------------------
2023-03-02 13:16:29,612 - INFO - config=<configparser.ConfigParser object at 0x7f5cacff31c0>
2023-03-02 13:16:36,150 - INFO - model=MalConvGCT(
  (pooling): AdaptiveMaxPool1d(output_size=1)
  (cat): CatMod()
  (embd): Embedding(257, 8, padding_idx=0)
  (context_net): MalConvML(
    (pooling): AdaptiveMaxPool1d(output_size=1)
    (cat): CatMod()
    (embd): Embedding(257, 8, padding_idx=0)
    (convs): ModuleList(
      (0): Conv1d(8, 512, kernel_size=(256,), stride=(64,))
    )
    (convs_1): ModuleList(
      (0): Conv1d(256, 256, kernel_size=(1,), stride=(1,))
    )
    (fc_1): Linear(in_features=256, out_features=256, bias=True)
    (fc_2): Linear(in_features=256, out_features=256, bias=True)
  )
  (convs): ModuleList(
    (0): Conv1d(8, 512, kernel_size=(256,), stride=(64,))
  )
  (linear_atn): ModuleList(
    (0): Linear(in_features=256, out_features=256, bias=True)
  )
  (convs_share): ModuleList(
    (0): Conv1d(256, 256, kernel_size=(1,), stride=(1,))
  )
  (fc_1): Linear(in_features=256, out_features=256, bias=True)
  (fc_2): Linear(in_features=256, out_features=2, bias=True)
)
2023-03-02 13:16:48,786 - INFO - 
----------------------------------------------------------------------------------------
 --------------------------- START @2023-03-02 13:16:48.786240---------------------------
----------------------------------------------------------------------------------------
2023-03-02 13:16:48,786 - INFO - config=<configparser.ConfigParser object at 0x7f27aa7461c0>
2023-03-02 13:16:55,252 - INFO - model=MalConvGCT(
  (pooling): AdaptiveMaxPool1d(output_size=1)
  (cat): CatMod()
  (embd): Embedding(257, 8, padding_idx=0)
  (context_net): MalConvML(
    (pooling): AdaptiveMaxPool1d(output_size=1)
    (cat): CatMod()
    (embd): Embedding(257, 8, padding_idx=0)
    (convs): ModuleList(
      (0): Conv1d(8, 512, kernel_size=(256,), stride=(64,))
    )
    (convs_1): ModuleList(
      (0): Conv1d(256, 256, kernel_size=(1,), stride=(1,))
    )
    (fc_1): Linear(in_features=256, out_features=256, bias=True)
    (fc_2): Linear(in_features=256, out_features=256, bias=True)
  )
  (convs): ModuleList(
    (0): Conv1d(8, 512, kernel_size=(256,), stride=(64,))
  )
  (linear_atn): ModuleList(
    (0): Linear(in_features=256, out_features=256, bias=True)
  )
  (convs_share): ModuleList(
    (0): Conv1d(256, 256, kernel_size=(1,), stride=(1,))
  )
  (fc_1): Linear(in_features=256, out_features=256, bias=True)
  (fc_2): Linear(in_features=256, out_features=2, bias=True)
)
2023-03-02 13:21:44,572 - INFO - 
----------------------------------------------------------------------------------------
 --------------------------- START @2023-03-02 13:21:44.572222---------------------------
----------------------------------------------------------------------------------------
2023-03-02 13:21:44,572 - INFO - config=<configparser.ConfigParser object at 0x7fc953f461c0>
2023-03-02 13:21:50,609 - INFO - model=MalConvGCT(
  (pooling): AdaptiveMaxPool1d(output_size=1)
  (cat): CatMod()
  (embd): Embedding(257, 8, padding_idx=0)
  (context_net): MalConvML(
    (pooling): AdaptiveMaxPool1d(output_size=1)
    (cat): CatMod()
    (embd): Embedding(257, 8, padding_idx=0)
    (convs): ModuleList(
      (0): Conv1d(8, 512, kernel_size=(256,), stride=(64,))
    )
    (convs_1): ModuleList(
      (0): Conv1d(256, 256, kernel_size=(1,), stride=(1,))
    )
    (fc_1): Linear(in_features=256, out_features=256, bias=True)
    (fc_2): Linear(in_features=256, out_features=256, bias=True)
  )
  (convs): ModuleList(
    (0): Conv1d(8, 512, kernel_size=(256,), stride=(64,))
  )
  (linear_atn): ModuleList(
    (0): Linear(in_features=256, out_features=256, bias=True)
  )
  (convs_share): ModuleList(
    (0): Conv1d(256, 256, kernel_size=(1,), stride=(1,))
  )
  (fc_1): Linear(in_features=256, out_features=256, bias=True)
  (fc_2): Linear(in_features=256, out_features=2, bias=True)
)
2023-03-02 13:31:21,731 - INFO - 
----------------------------------------------------------------------------------------
 --------------------------- START @2023-03-02 13:31:21.731071---------------------------
----------------------------------------------------------------------------------------
2023-03-02 13:31:21,731 - INFO - config=<configparser.ConfigParser object at 0x7f116d5b1ca0>
2023-03-02 13:31:26,228 - INFO - model=MalConvGCT(
  (pooling): AdaptiveMaxPool1d(output_size=1)
  (cat): CatMod()
  (embd): Embedding(257, 8, padding_idx=0)
  (context_net): MalConvML(
    (pooling): AdaptiveMaxPool1d(output_size=1)
    (cat): CatMod()
    (embd): Embedding(257, 8, padding_idx=0)
    (convs): ModuleList(
      (0): Conv1d(8, 512, kernel_size=(256,), stride=(64,))
    )
    (convs_1): ModuleList(
      (0): Conv1d(256, 256, kernel_size=(1,), stride=(1,))
    )
    (fc_1): Linear(in_features=256, out_features=256, bias=True)
    (fc_2): Linear(in_features=256, out_features=256, bias=True)
  )
  (convs): ModuleList(
    (0): Conv1d(8, 512, kernel_size=(256,), stride=(64,))
  )
  (linear_atn): ModuleList(
    (0): Linear(in_features=256, out_features=256, bias=True)
  )
  (convs_share): ModuleList(
    (0): Conv1d(256, 256, kernel_size=(1,), stride=(1,))
  )
  (fc_1): Linear(in_features=256, out_features=256, bias=True)
  (fc_2): Linear(in_features=256, out_features=2, bias=True)
)
2023-03-02 13:31:26,306 - INFO - len(ben_done)=0 -- len(ben_files)=2855 -- len(WINDOWS)=2855
len(mal_done)=1504 -- len(mal_files)=2712 -- len(SOREL)=4216
2023-03-02 13:31:28,415 - INFO - Starting explanations: initial=0, start=None, end=None, total=87 @2023-03-02 13:31:28.415121
2023-03-02 13:31:28,466 - INFO - 0 / 87 = 0% @2023-03-02 13:31:28.466479
2023-03-02 13:37:44,864 - INFO - 1 / 87 = 1% @2023-03-02 13:37:44.864574
…
