2023-03-01 11:22:04,125 - INFO - 
----------------------------------------------------------------------------------------
 --------------------------- START @2023-03-01 11:22:04.125708---------------------------
----------------------------------------------------------------------------------------
2023-03-01 11:22:04,125 - INFO - config=<configparser.ConfigParser object at 0x7f93533b4e80>
2023-03-01 11:22:08,384 - INFO - model=MalConvGCT(
  (pooling): AdaptiveMaxPool1d(output_size=1)
  (cat): CatMod()
  (embd): Embedding(257, 8, padding_idx=0)
  (context_net): MalConvML(
    (pooling): AdaptiveMaxPool1d(output_size=1)
    (cat): CatMod()
    (embd): Embedding(257, 8, padding_idx=0)
    (convs): ModuleList(
      (0): Conv1d(8, 512, kernel_size=(256,), stride=(64,))
    )
    (convs_1): ModuleList(
      (0): Conv1d(256, 256, kernel_size=(1,), stride=(1,))
    )
    (fc_1): Linear(in_features=256, out_features=256, bias=True)
    (fc_2): Linear(in_features=256, out_features=256, bias=True)
  )
  (convs): ModuleList(
    (0): Conv1d(8, 512, kernel_size=(256,), stride=(64,))
  )
  (linear_atn): ModuleList(
    (0): Linear(in_features=256, out_features=256, bias=True)
  )
  (convs_share): ModuleList(
    (0): Conv1d(256, 256, kernel_size=(1,), stride=(1,))
  )
  (fc_1): Linear(in_features=256, out_features=256, bias=True)
  (fc_2): Linear(in_features=256, out_features=2, bias=True)
)
2023-03-01 11:22:09,552 - INFO - Starting explanations: initial=0, start=None, end=None, total=182 @2023-03-01 11:22:09.552513
2023-03-01 11:22:09,742 - INFO - 0 / 182 = 0% @2023-03-01 11:22:09.742302
2023-03-01 11:22:13,876 - INFO - 1 / 182 = 0% @2023-03-01 11:22:13.876852
2023-03-01 11:22:21,653 - INFO - 2 / 182 = 1% @2023-03-01 11:22:21.653864
2023-03-01 11:22:34,892 - INFO - 3 / 182 = 1% @2023-03-01 11:22:34.892451
…
2023-03-09 16:11:32,507 - INFO - Starting explanations: initial=0, start=None, end=None, total=42 @2023-03-09 16:11:32.507129
2023-03-09 16:11:36,028 - INFO - 0 / 42 = 0% @2023-03-09 16:11:36.028895
2023-03-09 16:21:52,304 - INFO - 
----------------------------------------------------------------------------------------
 --------------------------- START @2023-03-09 16:21:52.304158---------------------------
----------------------------------------------------------------------------------------
2023-03-09 16:21:52,304 - INFO - config=<configparser.ConfigParser object at 0x7f79541c5ca0>
2023-03-09 16:21:52,360 - INFO - model=MalConvGCT(
  (pooling): AdaptiveMaxPool1d(output_size=1)
  (cat): CatMod()
  (embd): Embedding(257, 8, padding_idx=0)
  (context_net): MalConvML(
    (pooling): AdaptiveMaxPool1d(output_size=1)
    (cat): CatMod()
    (embd): Embedding(257, 8, padding_idx=0)
    (convs): ModuleList(
      (0): Conv1d(8, 512, kernel_size=(256,), stride=(64,))
    )
    (convs_1): ModuleList(
      (0): Conv1d(256, 256, kernel_size=(1,), stride=(1,))
    )
    (fc_1): Linear(in_features=256, out_features=256, bias=True)
    (fc_2): Linear(in_features=256, out_features=256, bias=True)
  )
  (convs): ModuleList(
    (0): Conv1d(8, 512, kernel_size=(256,), stride=(64,))
  )
  (linear_atn): ModuleList(
    (0): Linear(in_features=256, out_features=256, bias=True)
  )
  (convs_share): ModuleList(
    (0): Conv1d(256, 256, kernel_size=(1,), stride=(1,))
  )
  (fc_1): Linear(in_features=256, out_features=256, bias=True)
  (fc_2): Linear(in_features=256, out_features=2, bias=True)
)
2023-03-09 16:22:21,265 - INFO - 
----------------------------------------------------------------------------------------
 --------------------------- START @2023-03-09 16:22:21.265537---------------------------
----------------------------------------------------------------------------------------
2023-03-09 16:22:21,265 - INFO - config=<configparser.ConfigParser object at 0x7fc4dc9b2ca0>
2023-03-09 16:22:21,317 - INFO - model=MalConvGCT(
  (pooling): AdaptiveMaxPool1d(output_size=1)
  (cat): CatMod()
  (embd): Embedding(257, 8, padding_idx=0)
  (context_net): MalConvML(
    (pooling): AdaptiveMaxPool1d(output_size=1)
    (cat): CatMod()
    (embd): Embedding(257, 8, padding_idx=0)
    (convs): ModuleList(
      (0): Conv1d(8, 512, kernel_size=(256,), stride=(64,))
    )
    (convs_1): ModuleList(
      (0): Conv1d(256, 256, kernel_size=(1,), stride=(1,))
    )
    (fc_1): Linear(in_features=256, out_features=256, bias=True)
    (fc_2): Linear(in_features=256, out_features=256, bias=True)
  )
  (convs): ModuleList(
    (0): Conv1d(8, 512, kernel_size=(256,), stride=(64,))
  )
  (linear_atn): ModuleList(
    (0): Linear(in_features=256, out_features=256, bias=True)
  )
  (convs_share): ModuleList(
    (0): Conv1d(256, 256, kernel_size=(1,), stride=(1,))
  )
  (fc_1): Linear(in_features=256, out_features=256, bias=True)
  (fc_2): Linear(in_features=256, out_features=2, bias=True)
)
2023-03-09 16:22:21,355 - INFO - len(ben_done)=0 -- len(ben_files)=2855 -- len(WINDOWS)=2855
len(mal_done)=2672 -- len(mal_files)=1544 -- len(SOREL)=4216
2023-03-09 16:22:21,655 - INFO - Starting explanations: initial=0, start=None, end=None, total=27 @2023-03-09 16:22:21.655462
2023-03-09 16:22:21,942 - INFO - 0 / 27 = 0% @2023-03-09 16:22:21.942641
2023-03-09 16:24:29,788 - INFO - 
…
