…
 'benign_iterable_callable': <__main__.TextSectionAttributionsIterable object at 0x7f05239af160>,
 'benign_replacement': tensor([205., 205., 205.,  ...,   1.,   1.,   1.]),
 'chunk_size': 512,
 'confidences_path': PosixPath('outputs/gct/4000000/KernelShap/False/512/50/1/confidences/pefile'),
 'e': ValueError('attributions have nonzero chunk offset o=384'),
 'f': PosixPath('/home/lk3591/Documents/datasets/Sorel/processed/train/002bbe40cd855b992d71cd91a1b9b1f2f2219b49b77341e1c1cf2ba0eb37fcde'),
 'l': 1152,
 'model': MalConvGCT(
  (pooling): AdaptiveMaxPool1d(output_size=1)
  (cat): CatMod()
  (embd): Embedding(257, 8, padding_idx=0)
  (context_net): MalConvML(
    (pooling): AdaptiveMaxPool1d(output_size=1)
    (cat): CatMod()
    (embd): Embedding(257, 8, padding_idx=0)
    (convs): ModuleList(
      (0): Conv1d(8, 512, kernel_size=(256,), stride=(64,))
    )
    (convs_1): ModuleList(
      (0): Conv1d(256, 256, kernel_size=(1,), stride=(1,))
    )
    (fc_1): Linear(in_features=256, out_features=256, bias=True)
    (fc_2): Linear(in_features=256, out_features=256, bias=True)
  )
  (convs): ModuleList(
    (0): Conv1d(8, 512, kernel_size=(256,), stride=(64,))
  )
  (linear_atn): ModuleList(
    (0): Linear(in_features=256, out_features=256, bias=True)
  )
  (convs_share): ModuleList(
    (0): Conv1d(256, 256, kernel_size=(1,), stride=(1,))
  )
  (fc_1): Linear(in_features=256, out_features=256, bias=True)
  (fc_2): Linear(in_features=256, out_features=2, bias=True)
),
 'o': 384,
 'run_flags': <Section: RUN_FLAGS>,
 'u': 11520}
---------------------------------------- ERROR ----------------------------------------

---------------------------------------- ERROR ----------------------------------------
index 0 is out of bounds for dimension 0 with size 0
Traceback (most recent call last):
File "modify_malware.py", line 447, in run_per_sample
…
